model.pth (torch, 105524 bytes, 6 tensors)

fc1.weight f4 [32, 784]
00000000: 7cf7 903c dc25 6e3c 206b 1cbc 9532 873c
00000010: 0ad1 8b3b 4e83 10bd da2b edbc 1c44 b0bc
00000020: ae47 4fbc 535a bbbc 3012 a9bc 13b0 36bb
00000030: 5e54 b33c f026 973c 129d 4fbc 13fb f8bb
00000040: ac13 f73c 0a1b debc 6039 0d3d 359b e4bc
00000050: f7e9 abbb 6cde 05bd f795 c8bb 4aa1 433b
00000060: 37f9 8abc 1709 ccbc fca3 023c 6594 b7bc
00000070: b723 23bc 7c96 53bc 5342 ea3c 4a5c 27bc
00000080: fef3 9cbc bba0 953c d93a 05bc db32 00bd
00000090: 1dd1 523d c050 cb3d ee6a 993d 9da2 d73d
000000a0: d218 03be bda6 0b3b 14ec c43d 1b2f e0bd
000000b0: ae81 863d 51bc e03d ade8 2f3e cd95 b83d
000000c0: 88af 583d 848d 86bc 2417 2d3c 81f0 3dba
000000d0: cabc 04bb 770b 533c 481b e33c c181 f7bc
000000e0: fc6c 8d3c 98c9 f3bc dbe0 48bb 9720 0ebe
000000f0: 4ab7 c4bd ccca 5b3d c61b b53d 5556 303d
00000100: 5c03 383e 41cd 213e 1cb1 ce3d 7168 ea3c
00000110: 21cc c13c 804e 953d 1f18 4a3d c2ad b93d
00000120: 31e8 bd3d e8bb 393d 2fde 733c f548 0d3b
00000130: 29cf 4b3d 402e d63d 0627 033e 6dd6 32bd
00000140: 0f61 1b3d 5709 693d ee25 a23b dcf2 d0bb
00000150: b369 923c a592 df3c dbbc 593d d05e e1bd
00000160: 79ff 423d c3c6 053d 3689 edbb ece5 213d
00000170: 8348 43bc b6ba 4a3d 4c61 2cbd 1bea 83bc
00000180: 59f5 cb3c ea6f 933c 0592 86bd e05e 1f3d
00000190: 2c3e a13d e052 263d 8ebe 063c f8df 603d
000001a0: 2e00 19bc ed93 b43d 16e8 a83d c5f1 ed3d
000001b0: 6a74 32bb e80b 8b3d 0492 bfbd 2bc6 013d
000001c0: dcd4 02bd ef00 52bd 35a4 b83d 6507 b4bd
000001d0: f7d8 8c3d 40ed 9abc 8119 bebc a672 3f3d
000001e0: 7e76 f1bb 64de 323d 6219 fdbc 9cad 94bc
000001f0: 68c9 163b 2c4a c0bc 5759 113b b926 333d
00000200: 07c3 4d3d dca1 84bc 7642 4d3b a258 3fbd
00000210: 81a3 a23c 6d71 343d 4159 853d 4d85 1f3e
00000220: ec5a 273e 2863 943d bec9 0dbd 326c 763d
00000230: 6568 c23c 6ef5 08bb 9b74 debd 3d63 0f3c
00000240: 0bd6 a7bb 3a29 993d 6929 063d 6979 4bbc
00000250: f828 583d ac95 e83c 1913 e13c dc3d 963c
00000260: 14f5 693c 2468 8f3b b48d 203d 4467 b0bc
00000270: 0eb7 bfbc 1b56 493c 43a4 0bbd 5bfa 8b3b
00000280: 6a26 b53c 9ea3 c3ba bd0f ba3b 0542 4c3d
00000290: 4817 8e3d 0738 ba3d aff1 69bd 5c59 ff3d
000002a0: 2a62 ee3c 1067 bcbd 42db da3c 645f 7fbc
000002b0: ece0 8e3d 3bdb 033c 2afd 1a3d 846c 9d3b
000002c0: 709e 783d 7506 643d 2de3 7f3c 9081 1a3c
000002d0: 7578 4a3d 3f1c 263a 7036 943c ff5d 65bd
000002e0: 1165 e33b 1054 2f3d b98c 113c ca8f 173d
000002f0: dff1 e13b bdaf 933c edeb a23d 82b4 573d
00000300: f23a 1ebc 393e d0bc f19e 1d3e 305f e83c
00000310: e418 a13c f280 c3bd 3515 a83d e165 093d
00000320: b5b1 223c acd2 57bd 369c be3b 6e2f 13bc
00000330: 668d 0f3d 6d9a 2f3d 3c35 543d 02d4 aabc
00000340: f94d 903b 8b24 cabb 31e6 733a 325d ac3b
00000350: c70a 8f3c 66f7 ec3c 6ab7 f23c e6f6 553c
00000360: a798 1c3a 4395 2c3d 2d7f c83d 8719 453d
00000370: 179b a9bc 0bfa 46bc 5a72 bc3c 34ef 913d
00000380: d22c c4bb df8c 323e 4549 9e3c e202 be3a
00000390: 3648 673d 255a 853c f618 82bc 8b42 8e3b
000003a0: 487c 883c acfa 303d 00ff b73b 0d48 153d
000003b0: 06a9 c43c 2904 95bc cf08 93bc 170f 713b
000003c0: 659a 25bd 5ddd 0d3c 19bd 603d 02b9 c63c
000003d0: 6c48 423d 7b47 903c 2670 81bd 0aa7 9a3a
000003e0: 151d b93c c2da 213d 4d91 323e 9c89 0fbe
000003f0: dfd5 823c 1ce4 66bd e12c 213d 3c24 21bd
0.017696135 0.014535394 -0.009547025 0.016503612 0.0042668628 -0.035281472 -0.028951574 -0.021516852
-0.012651367 -0.022870218 -0.020638555 -0.0027875945 0.021890815 0.018451184 -0.012671726 -0.0075982898
0.030160747 -0.027112503 0.034478545 -0.02790604 -0.0052463966 -0.03268282 -0.006121393 0.0029850774
-0.016964538 -0.024906678 0.007973667 -0.022409627 -0.009957246 -0.012914296 0.028596079 -0.0102148745
-0.019159313 0.018265119 -0.008131706 -0.0312985 0.051468957 0.09927511 0.07491098 0.10529063
-0.12802437 0.00213091 0.09615341 -0.10946485 0.06567703 0.109734185 0.17178603 0.09012947
0.052901775 -0.016424902 0.010564599 -0.00072456157 -0.0020254129 0.012881151 0.02772297 -0.030213239
0.017263882 -0.029759213 -0.0030651602 -0.1387962 -0.09605272 0.0536602 0.08843188 0.043051083
0.17970031 0.15800954 0.10092375 0.028614255 0.023656907 0.07290363 0.04933941 0.09066345
0.092728026 0.045345217 0.014884516 0.0021558378 0.04975811 0.1045804 0.12807855 -0.043661524
0.03793436 0.056893673 0.004948369 -0.0063766073 0.017872667 0.027291605 0.053158622 -0.11004412
0.04760692 0.032660257 -0.007249023 0.03952591 -0.011919144 0.049494468 -0.042084977 -0.016102841
0.024897264 0.0179977 -0.0657082 0.03890884 0.078731865 0.04060638 0.008224143 0.054901093
-0.009338422 0.08817277 0.08247392 0.116183795 -0.0027230033 0.0678938 -0.09354022 0.03168313
-0.03194128 -0.05127042 0.09015695 -0.08790473 0.0687732 -0.018911958 -0.02320552 0.046740197
-0.0073688617 0.04366912 -0.030895893 -0.01814919 0.002300823 -0.023472868 0.0022178495 0.0437381
0.05023482 -0.016190462 0.0031320131 -0.046715386 0.019853355 0.044053484 0.065111645 0.15578194
0.16343278 0.07245475 -0.034616224 0.060161777 0.02373142 -0.002089824 -0.108620845 0.008751688
-0.0051219515 0.074785665 0.032754336 -0.012419083 0.052773446 0.028391682 0.027474927 0.018340044
0.014279623 0.004376428 0.03919764 -0.021533616 -0.023402717 0.012288596 -0.0340922 0.004271788
0.022113044 -0.0014926081 0.0056781457 0.04986765 0.06938034 0.090927176 -0.057115253 0.12468216
0.029099543 -0.09199345 0.026715878 -0.015586708 0.06976494 0.008047874 0.037839092 0.004804196
0.060697973 0.05567022 0.015618128 0.009430304 0.049431283 0.00063366065 0.018092364 -0.055997845
0.0069395383 0.042804778 0.008883649 0.037002362 0.0068952884 0.018028134 0.079551555 0.05266238
-0.009657608 -0.025420295 0.15392663 0.028365701 0.01966519 -0.09546079 0.0820717 0.033544425
0.009930064 -0.052691147 0.0058169616 -0.008983476 0.035046957 0.04287188 0.05180858 -0.020853046
0.0044038263 -0.006168907 0.00093040155 0.005260133 0.017461194 0.028926563 0.029628474 0.013059353
0.00059736747 0.042134535 0.09789882 0.048120048 -0.020703835 -0.012144576 0.023003746 0.071257025
-0.0059867883 0.1743655 0.019322047 0.0014496709 0.05646535 0.016278336 -0.015881043 0.0043414286
0.016660824 0.04320781 0.005615115 0.036445666 0.024006378 -0.01819046 -0.017948536 0.0036782676
-0.040430445 0.008658734 0.054867838 0.02425814 0.047432348 0.01761221 -0.06320219 0.0011799049
0.022596875 0.039515264 0.1743824 -0.14017338 0.015971122 -0.056369886 0.03934944 -0.039341196

fc1.bias f4 [32]
00000000: aec2 223e 6569 ffbc 8a74 80be 168a 733d
00000010: 3a50 57bd 98f3 0ebd af09 b7bd fca4 cdbc
00000020: 3757 8dbd 04a4 943c 6657 7f3d d050 673b
00000030: 2e6e ff3c 4a42 063d cb07 7a3d 6acf b2bd
00000040: 070b 10bd 9ee8 073e 5e9d 5dbb 8a56 81bc
00000050: 021e b6bb 868e bbbd 68d9 7b3c f45e 89bd
00000060: 6bc5 113c 167d 4c3e c342 acbb 427c 68bd
00000070: 61cd 883d 3448 bd3a 24d4 63bc 977e 333e
0.15894577 -0.031178186 -0.25088912 0.05945786 -0.052566744 -0.034900278 -0.08937394 -0.025103085
-0.069014005 0.018144615 0.06233921 0.003529597 0.031180467 0.032778062 0.06104259 -0.08730967
-0.035166766 0.1327233 -0.0033815722 -0.015788335 -0.0055577764 -0.091580436 0.015371658 -0.06707564
0.008897166 0.19969591 -0.005256982 -0.056759126 0.06679798 0.0014441074 -0.013905559 0.17528759

fc2.weight f4 [16, 32]
00000000: eaf1 4abe 71a9 9cbe 4a64 31be 3db0 e4bd
00000010: b0d5 6d3e 318a d6bd 8abb 97bd aa7b 2d3d
00000020: d234 2dbb b56e 543e 87f4 e13d c418 3cbe
00000030: 39ee 9a3c 751a a4bd 7d1d c1bd c5da c1bc
00000040: 4428 b63d 9568 8d3c 34b9 2cbe 1770 4f3b
00000050: 2246 5ebe 9758 c03d b783 733e 073d 003d
00000060: f0b1 f13d babe c43d 047c 01be 9f9f 7abd
00000070: 7875 d5bd cd37 293d 1932 823d b3d3 3cbe
00000080: a776 bc3d a6de b0bd 59ea 18be c395 85be
00000090: fc7c 5b3e 78b4 e7bd f43d 243e 8d4c 4ebd
000000a0: d751 8f3c 0ac1 d3bb c8c8 d73d 6ed8 5abe
000000b0: 70c5 07bc 1801 c1bc edcb fb3d b7ba d8bd
000000c0: 7524 133d b854 28bb 94c5 b0bd f226 d7bb
000000d0: e583 e8bd 74d6 0fbe f091 1c3d 0583 33be
000000e0: 72cc cb3d fca1 403d 35fb 6e3e 80fd 3ebe
000000f0: eac6 febd 99f9 f2bd c861 0f3e d5e7 e7bd
00000100: 5aa1 ed3d fd3a 703d 0e86 a9bd 4f88 60be
00000110: a4d6 0ebe 8d3c d6bd 20bb 33bd acf1 bebe
00000120: 22e8 8bbd a0d8 cdbb 9867 403e 2a9d 1e3e
00000130: e642 70bd 4c9e 1b3e 4186 d83d 2215 413e
00000140: 00bf 2c3e bf1a 10be d12b b8bd 8865 46be
00000150: 2e55 92bd b726 64bd a55f 8d3e 9f91 183e
00000160: 3a98 313d 9578 a3bd 1f43 2bbe 804c c43c
00000170: b5f5 bfbd 2d77 303d 008e 013e 1e16 993d
00000180: 2055 df3d 1fdf 3dbd edf2 863d 4743 e03d
00000190: ae3e 813c aae2 a93d 1cf0 5e3e 47c9 f63d
000001a0: 23c5 bebc 646a eabd 91a9 a2bd d2b9 abbd
000001b0: 921b 27be 23e8 b8bc 618b 0ebb f9f5 043d
000001c0: 757b 283e a601 12be 12ba 233e aee0 c2bd
000001d0: 20ce 403e e442 43be f42d 2dbe be29 283e
000001e0: 229e 083d 0917 21be b1d7 893d 22eb fdbb
000001f0: fb09 0e3d 4e9c b83d 2347 b33d 9b87 253e
00000200: 4689 9cbc 5582 263e 431b febd 32e7 203e
00000210: 3321 323e 8be0 8dbe 3b2d b03c ad33 e03d
00000220: b395 923d 55a6 4ebe d60e 20be 5deb 6e3d
00000230: a8bf a43e 5f32 91bd 1409 623e 0fd4 c5bc
00000240: a527 15be a35d 0b3c a97a 36be 40fd 8fbe
00000250: 0607 1e3e 7a43 383e 95bd d8bd d239 4e3e
00000260: 97cd bfbd d7a3 a33c fd70 c0bc 66b1 f43d
00000270: 5e91 a23d fba5 393b e16a 8bbe 8cdb 35be
00000280: ca6c 91bd f81c 8fbd 5acf ea3c 6301 39bd
00000290: 56cb bc3d 44e5 333d 46b5 2dbd 1496 303e
000002a0: ec79 723e cd96 28be 962b 47bd 1854 263c
000002b0: bc98 ad3d 43dc f03d 5914 5f3e a6c6 ee3d
000002c0: 4e61 fdbd 5780 cfbd 2a63 6f3e b281 7c3e
000002d0: eb5f 0e3e f558 923d 9e57 2abe 9aaf 64be
000002e0: 5eb6 5c3e 8f69 ad3c 036f 6f3e e556 fabd
000002f0: 77df 2bbd b594 37be 27aa 743d 7e92 a53d
00000300: d6d5 21bd 2b35 bf3d e44c 673d 8c84 093e
00000310: 4253 a9bd 2259 81bc 9252 18be ab53 113d
00000320: 913f c03d a634 e83d fdba ad3d b301 a53d
00000330: 6a74 1fbe 2f99 ef3d bfac 05be 643e 193e
00000340: a0aa 2e3c d669 8d3b 482d 403e 48c8 1c3e
00000350: c6f7 fb3d f6b9 283e acf9 693e 6306 05be
00000360: 7d9b 083e 183d 27be 7985 8d3e 1f86 773d
00000370: ce89 a6bd 2ff3 9abc 4496 083e 6bca 29bd
00000380: b180 13be 3247 b2bd be6b 0ebe ccbe 3abe
00000390: 6a81 ddbc 423d 453e 90e6 e23c c4da d83c
000003a0: 8d4b 0bbd c8a3 1c3e a757 72bd f62c 16bd
000003b0: 2a8d 253e 433c 75bd 0faa 8fbc 6370 043e
000003c0: 9a7f ee3c 9d51 6bbd 39f9 563d 6641 dcbd
000003d0: f1d9 d13d 1b75 653d 87be 1a3d 2056 b63c
000003e0: c57c 813d 9180 3a3e 3171 1ebe f45a 72bd
000003f0: 493d 41be 9e1a 2b3d 64d2 403d ea81 d83c
-0.19818845 -0.30598024 -0.17323413 -0.11166427 0.23226047 -0.10475577 -0.07408817 0.042354263
-0.0026429188 0.20745356 0.11032968 -0.18368822 0.018912422 -0.08012859 -0.094294526 -0.023663888
0.08894399 0.017261783 -0.16867524 0.0031652504 -0.21706441 0.09391897 0.23780714 0.0313082
0.11801517 0.09606691 -0.12644964 -0.061187383 -0.10422796 0.04131298 0.063572116 -0.18440132
0.09202319 -0.08636217 -0.14933147 -0.26090822 0.21434397 -0.113137186 0.16039258 -0.050365973
0.017495079 -0.006462221 0.10536343 -0.21371624 -0.008286819 -0.023560092 0.12294755 -0.10582488
0.03592344 -0.0025685262 -0.08631435 -0.006565922 -0.11353282 -0.14046651 0.038225114 -0.17530449
0.09951104 0.04702948 0.23338015 -0.1865139 -0.124402836 -0.11864013 0.14002144 -0.11323515
0.11603041 0.058650006 -0.08277522 -0.21926998 -0.13949066 -0.10460768 -0.04387963 -0.37293756
-0.06831385 -0.006281927 0.18789518 0.15489641 -0.05865755 0.15197104 0.10572482 0.18855718
0.16869736 -0.14072703 -0.08992732 -0.19374669 -0.07145153 -0.055700984 0.27612033 0.148993
0.043358065 -0.079819836 -0.16724823 0.02396226 -0.09373037 0.043082405 0.12651825 0.07474922
0.10904908 -0.046355363 0.06589303 0.10950332 0.015776958 0.08295186 0.21771282 0.12050109
-0.023287361 -0.11446074 -0.079424985 -0.08385052 -0.16319111 -0.022571629 -0.0021750557 0.03246114
0.16453345 -0.14258441 0.15988949 -0.095155105 0.1882863 -0.19068485 -0.16912061 0.16422173
0.033353932 -0.15731443 0.06730593 -0.0077489773 0.034677487 0.09014188 0.087538026 0.1616501
-0.019108426 0.16260655 -0.124075435 0.15713194 0.17395477 -0.27710375 0.021505943 0.109473564
0.07157459 -0.20180638 -0.1563066 0.05832993 0.32177472 -0.07089686 0.22073776 -0.024148969
-0.14565904 0.008506211 -0.17820229 -0.28122902 0.15432367 0.1799449 -0.10583035 0.20139244
-0.09365385 0.019975586 -0.023491377 0.119478986 0.07937883 0.0028327692 -0.2722998 -0.17759532
-0.07100828 -0.06987947 0.028663326 -0.045167338 0.09218471 0.043919817 -0.042409204 0.1724475
0.23679322 -0.16463776 -0.04862555 0.010151885 0.084763974 0.117607616 0.21785106 0.11658983
-0.12372075 -0.10131901 0.23377672 0.2465885 0.13903777 0.071458735 -0.16634986 -0.22332612
0.21553943 0.021168498 0.23382191 -0.12223605 -0.04196116 -0.17927821 0.059732582 0.08084582
-0.03951057 0.09336313 0.056469813 0.13429469 -0.08267833 -0.015789572 -0.14875248 0.035480183
0.09387124 0.11338167 0.08482931 0.08056965 -0.15571752 0.11699139 -0.13054179 0.14965206
0.010660797 0.004315595 0.18767273 0.15310776 0.123031184 0.16477188 0.22849149 -0.12990718
0.13340564 -0.16331899 0.27640894 0.060430642 -0.08131753 -0.018914787 0.13338572 -0.041452806
-0.1440456 -0.08704986 -0.13908288 -0.18236846 -0.027039248 0.19261649 0.027697831 0.026471503
-0.034007598 0.15296853 -0.059165623 -0.03666397 0.16167131 -0.059871923 -0.017537145 0.12933497
0.02911358 -0.05745088 0.05248377 -0.10754661 0.10246647 0.056019884 0.037779357 0.022257864
0.06322626 0.18213107 -0.15472867 -0.05916877 -0.18871035 0.04177343 0.047075644 0.026429135

fc2.bias f4 [16]
00000000: 7b72 0cbd 5900 fc3d c8b5 0c3e 5e0a abbe
00000010: c781 d43d f9e9 2dbd 0216 cdbe 71df 9a3d
00000020: 2254 a53d 266a d2bd 96e2 303d 0304 263d
00000030: 799f 32bd 3b98 c43d f721 573e 0bb0 703e
-0.034288865 0.12304754 0.13741219 -0.33406347 0.103763156 -0.04245946 -0.40055853 0.07562149
0.08072688 -0.102741525 0.04318484 0.04053117 -0.043609116 0.09599348 0.2100905 0.23504655

fc3.weight f4 [10, 16]
00000000: 2c3c c3bd 3a3a 7cbe fecc 24be 4ee5 9e3d
00000010: 1292 883e 1070 b0be 14f5 413e 84e7 b5be
00000020: f8ec c8bd 67e2 253d 96de bb3d 7f4b 62bd
00000030: 85be e33c c870 0fbe 4b52 ebbd e7ef 97be
00000040: c855 9e3e d142 9f3e cd9a b0bd 35d8 963e
00000050: 36af 41be b2b8 173e 6bf5 d6bd b269 28be
00000060: edbc fe3d 83de 97bd 6bf0 fbbd d50c 04bc
00000070: 34bc 5a3e 9fac cdbd 0dcb 8bbd ddf2 33be
00000080: 79f9 72be 2676 ac3b 33a1 b3bd 0efe 2fbd
00000090: 6ff9 26be f43b 003e 81e5 e8bb a740 e63d
000000a0: c102 0b3e 2a4f 08be fe59 afbe c8f5 033d
000000b0: 5ca4 b0bd 793e 983e 557b 2fbe c15f edbd
000000c0: 2fde 7a3d 3c29 2ebe ed8f 1a3d 4b9b 07be
000000d0: b5b1 74be bdff 3f3e ee9b 173e 0e6e 00bf
000000e0: 4421 2ebe 9b28 2bbe 6275 5cbe cdc0 a4be
000000f0: 8aed ef3c 2f0d 64bd ead3 573e a7b1 70be
00000100: c326 043e c147 6f3d a002 91bd 858a 3f3e
00000110: 3d24 2abe 9def 66be 4606 bbbd dbe8 cabd
00000120: 97f5 d0bd 6ba1 70bd fd88 193e 4aec bfbd
00000130: 4126 35be 84e8 b23c f810 d5bd a591 663e
00000140: 2ed0 0f3e 7ebf 98be cbb1 c2bd eaad 4b3d
00000150: c2b3 a1bc 1149 143e 3f42 2e3e 134e 1b3e
00000160: b1d2 5dbc a7fe 393e 35d4 ae3e a48b f03d
00000170: d423 4fbe d2da b2be 40b3 43be bf2d 433c
00000180: 9717 6bbe 5f4c 923d 043d 8abd 807a 18be
00000190: 5b8e a73e 2d78 d33c 2824 8fbe 60f5 98be
000001a0: b7ab f33b e0ae bd3d 241e fcbc 110f 5f3d
000001b0: eac9 df3a 76ae 8cbe 3a9a 69bd 1df2 ccbd
000001c0: 9452 b2be 8c96 70be 349b 413e 4deb 9e3e
000001d0: 6f5e e1bd da9d b5bd fc55 263e 2e09 a83e
000001e0: 1592 8dbd 83e5 8abd 590f 293e e4a2 323e
000001f0: 4218 f53d 0779 31bd abec 8fbe be24 11be
00000200: df59 d53d 886c abbd 7513 f23d 6054 b2be
00000210: ff16 9dbd fe32 fbbd d977 493d 1624 a6bd
00000220: c802 933e 2f21 a93d e722 fcbd 7d2e 593e
00000230: eae2 a6be b2d2 8abe 4aa9 f7ba 3a45 97bd
00000240: 3cac adbc 0bd9 e13d 098a c63e a5ff 52be
00000250: 1dc1 3e3e 8cc4 8e3d 2a28 9abd ac5e 1bbe
00000260: 1237 5cbe 3752 1abe 6ea7 ea3d bdca 95bd
00000270: 2ca7 0abe f1f1 acbe ea47 1e3e e08a 8ebd
-0.09532961 -0.24631587 -0.16093823 0.0775858 0.26673943 -0.34460497 0.18941146 -0.35528195
-0.09810823 0.040499117 0.09173314 -0.05524778 0.027800808 -0.14007866 -0.114903055 -0.29675218
0.3092482 0.31105664 -0.08623276 0.29461828 -0.18914494 0.1481655 -0.104960285 -0.1644657
0.124383785 -0.074154876 -0.123017155 -0.0080597 0.21360856 -0.100426905 -0.06825838 -0.17573114
-0.23727979 0.005263108 -0.08770981 -0.042966895 -0.16306089 0.1252287 -0.007107437 0.112428
0.1357527 -0.13311449 -0.34248346 0.032216817 -0.08625099 0.29735163 -0.17136891 -0.11590529
0.061247047 -0.17007917 0.037734915 -0.13242833 -0.23895915 0.187499 0.14805576 -0.5016793
-0.17004877 -0.16714709 -0.21529153 -0.32178345 0.029288072 -0.055676635 0.21076933 -0.23505269
0.12905411 0.05841804 -0.07080579 0.18705185 -0.16615386 -0.22552343 -0.09132056 -0.09907695
-0.102030925 -0.05874769 0.14993663 -0.093712404 -0.17690374 0.021839388 -0.10403627 0.22516496
0.14044258 -0.29833597 -0.095065676 0.049726404 -0.019739036 0.14480998 0.17017458 0.15166502
-0.013539002 0.18163548 0.34146276 0.11745384 -0.20228511 -0.34932572 -0.19111347 0.011912762
-0.22958218 0.07143473 -0.06749919 -0.1489048 0.32725796 0.02581414 -0.27957273 -0.29874706
0.0074362415 0.092618704 -0.03077609 0.054457728 0.0017073725 -0.27476853 -0.057031848 -0.10007117
-0.34828627 -0.23494929 0.18906862 0.31038895 -0.1100434 -0.088679984 0.16243738 0.32819504
-0.069126286 -0.06782057 0.16509761 0.1744495 0.119675174 -0.04332831 -0.2811025 -0.14174172
0.10417532 -0.0837031 0.118201174 -0.34829998 -0.07670402 -0.12265585 0.04918656 -0.081123516
0.2871306 0.082582824 -0.123113446 0.2120914 -0.32594997 -0.27113873 -0.0018895057 -0.07386251
-0.021200292 0.11027726 0.38777187 -0.20605333 0.18628354 0.06971082 -0.07527192 -0.15172833
-0.21505383 -0.15070425 0.11457716 -0.0731406 -0.13540334 -0.33778337 0.1545712 -0.06960082

fc3.bias f4 [10]
00000000: 3abd 443c 1da9 4f3e 5fee df3d cb82 e5bd
00000010: 5276 a93e 94a9 6cbe d525 a63d 407e 84be
00000020: 59b3 753e 7d6a a83e
0.012008006 0.20279355 0.109341376 -0.112065874 0.33098084 -0.23111564 0.08112685 -0.2587757
0.23994197 0.32893744
